…
2022-04-15 01:41:30.963411: I tensorflow/core/common_runtime/gpu/gpu_device.cc:1402] Created TensorFlow device (/job:localhost/replica:0/task:0/device:GPU:0 with 3644 MB memory) -> physical GPU (device: 0, name: Quadro P5000, pci bus id: 0000:65:00.0, compute capability: 6.1)
parameters <class 'list'> [<util.Parameter object at 0x7fb7c1a75090>, <util.Parameter object at 0x7fb7c1a75110>, <util.Parameter object at 0x7fb7c1a75150>, <util.Parameter object at 0x7fb7c1a75190>, <util.Parameter object at 0x7fb7c1a751d0>, <util.Parameter object at 0x7fb7c1a75210>]
Model: "two_pop_model"
_________________________________________________________________
Layer (type)                 Output Shape              Param #   
=================================================================
conv2d (Conv2D)              (None, 98, 32, 32)        352       
_________________________________________________________________
conv2d_1 (Conv2D)            (None, 98, 28, 64)        10304     
_________________________________________________________________
leaky_re_lu (LeakyReLU)      (None, 98, 32, 32)        0         
_________________________________________________________________
leaky_re_lu_1 (LeakyReLU)    (None, 98, 28, 64)        0         
_________________________________________________________________
flatten (Flatten)            (None, 1792)              0         
_________________________________________________________________
concatenate (Concatenate)    (None, 3584)              0         
_________________________________________________________________
dropout (Dropout)            (None, 98, 28, 64)        0         
_________________________________________________________________
dropout_1 (Dropout)          (None, 3584)              0         
_________________________________________________________________
dense (Dense)                (None, 1)                 3585      
=================================================================
Total params: 14,241
Trainable params: 14,241
Non-trainable params: 0
_________________________________________________________________
trial 1 [7.118372774235415e-08, 5051.979649574014, 12480.088492825884, 0.061209667268172285, 1614.4605003581084, 21539.764271716656]
2022-04-15 01:41:31.968298: I tensorflow/stream_executor/platform/default/dso_loader.cc:48] Successfully opened dynamic library libcudnn.so.7
…
